model.pth (torch, 458487 bytes, 8 tensors)

classifier.0.weight f4 [32, 3, 3, 3]
000000 ce 76 91 3d cd 11 cd 3c ce 69 04 bd 24 0a 42 bd
       0.07102738 0.025032902 -0.032327466 -0.047372952
000010 67 5b c6 3d f0 ba a7 b8 cc 29 45 3d e8 e0 dc 3c
       0.09685402 -7.9980004e-05 0.048135564 0.026962712
000020 84 c1 fe bc d2 04 5f bc fc b5 5a 3d 5c ed 44 3c
       -0.031098135 -0.013611989 0.05339621 0.0120194815
000030 0d ed e3 ba d0 c7 cb bd d0 d7 a0 3d d0 8c 69 3d
       -0.0017389372 -0.099502206 0.07853663 0.057019055
000040 1e a4 dd 3d e8 00 66 3d 68 57 f2 3c ca 80 9a bd
       0.108223185 0.056153208 0.029582694 -0.07544096
000050 71 65 19 bd e6 92 bf bd 70 85 f0 3c e4 17 60 bb
       -0.037450258 -0.093541905 0.029360503 -0.0034193927
000060 b7 66 e4 3d 4f 63 7b 3c ef 59 94 3c b7 fb 19 bd
       0.11152404 0.015343501 0.01810929 -0.03759357
000070 2c e8 96 3d 6c 1a 6a bd de 56 36 bd d2 c6 cc bd
       0.07368502 -0.057154104 -0.044516437 -0.099988595
000080 56 e7 a7 bd 13 16 76 bb 3c dd da 3d f0 ba 2e bd
       -0.08198421 -0.0037549778 0.10686728 -0.042658746
000090 16 96 b9 bd 50 a8 4e bd 56 51 7f 3c 18 a7 f8 3c
       -0.0906183 -0.050453484 0.015583357 0.030353114
0000a0 3e 5b b3 bd 3e 77 ee bd 39 21 8b bc aa 9c a9 bd
       -0.087576374 -0.116438374 -0.016983615 -0.082818344
0000b0 9c 63 9a bd 44 a0 8d bd 12 e5 16 3d 3e 28 8a 3d
       -0.0753853 -0.06915334 0.036839552 0.06745957
0000c0 bf e9 a6 3d 50 88 46 bd ce 79 61 bd 48 49 93 bc
       0.08150052 -0.04846984 -0.055047803 -0.01797928
0000d0 c4 a8 e9 bd 92 d7 26 bd 84 e2 9e bc c3 7c d0 bd
       -0.114091426 -0.040732928 -0.01939512 -0.101800464
0000e0 64 05 86 bd 6c 50 80 bd 9c fe 67 bc a7 a7 cc bd
       -0.06543997 -0.06265339 -0.014159825 -0.09992915
0000f0 ae 8c 9e bc 0c 58 42 bd 4d fd 20 bd dc 66 24 3d
       -0.01935419 -0.04744725 -0.039304066 0.040137157
000100 19 da 76 3c 94 d0 5f 3d a6 82 e0 3d 82 c0 b9 3d
       0.015066647 0.054642275 0.10962419 0.09069921
000110 20 15 93 bd 0a 2a d8 bd 15 fc 45 3d 58 ff d0 3d
       -0.07181764 -0.10554893 0.048336107 0.10204953
000120 c7 40 d6 3d be f6 f2 3c 68 ac a8 3d 1c a3 8e 3d
       0.10461574 0.029658671 0.08236009 0.069647044
000130 c6 18 88 3d 68 76 f7 bc e3 2b a6 3d 1a ad 41 bd
       0.0664535 -0.030207828 0.081138395 -0.047284223
000140 e8 70 57 bd 48 3b 08 3d 4a ef 0b bd 0d 00 24 bd
       -0.05259791 0.03325966 -0.03416375 -0.04003911
000150 dc 1f df bd 3a fc 80 ba a0 79 be bd 5d 6d 02 3d
       -0.108947486 -0.0009840794 -0.09300542 0.03184258
000160 70 60 fd 3c 22 ca 2d bd ae 3d cf bc c0 f5 86 bd
       0.030929774 -0.042429097 -0.025297966 -0.06589842
000170 42 87 0a 3d cf d9 dd bb bb d7 21 bc b2 a0 24 bc
       0.0338204 -0.0067703496 -0.009878094 -0.010048078
000180 e4 c6 78 bc 68 48 9e bd 79 35 b0 bd 5a 3e 95 bd
       -0.015184138 -0.07728654 -0.08603949 -0.07287283
000190 d0 62 b2 3d a3 69 84 bd 0c 91 10 bd 3e 46 e7 bd
       0.08710253 -0.06465461 -0.035294577 -0.112926945
0001a0 e4 bb 8e bc 3c b8 13 3d c4 ed 77 3d ea 94 b5 3c
       -0.017423578 0.03606437 0.060529485 0.022165734
0001b0 8e bb a0 3c 3e 7b be 3d 8e d5 9e bd 4e 50 8c 3c
       0.019620683 0.0930085 -0.07755576 0.017128136
0001c0 68 81 80 bd cc de 8a bd a4 cb bf bd 0c fd 30 3d
       -0.06274682 -0.067807764 -0.09365013 0.043210074
0001d0 43 e3 87 bc 28 7a c7 bd e4 04 6e 3d 40 db b6 bd
       -0.016587859 -0.09740096 0.058110133 -0.08928537
0001e0 cd 16 9e bc 27 7c cd bc d2 23 3a bd 46 35 8f bd
       -0.019297982 -0.025083615 -0.045444317 -0.06992583
0001f0 04 04 e6 bd 70 34 7b bd d3 fe da bb 00 22 d8 37
       -0.11231235 -0.061329305 -0.0066832094 2.5765039e-05
000200 d5 fb 36 bd 7e 0c 55 bd b2 6c 2b bd 2b d6 23 3d
       -0.04467376 -0.052013867 -0.041851707 0.03999917
000210 f8 d4 03 3d d8 48 81 3d f9 7c 88 bd a4 78 5f 3d
       0.032185525 0.06312722 -0.06664462 0.05455841
000220 de 85 3c bd 2a a2 45 3d bb a5 56 3d ca dc a1 bd
       -0.046026103 0.048250355 0.052404147 -0.0790344
000230 0a 63 78 3d e4 75 ad 3d 75 58 a8 3d 96 c4 8f bd
       0.060641326 0.084697515 0.08219997 -0.07019918
000240 d4 e1 5e bc b0 e8 87 bd 5c 39 9b bd 84 98 f4 bc
       -0.013603646 -0.066361785 -0.075793 -0.029857881
000250 9f f8 b3 bd 60 b1 3f bd e9 af e4 3a 98 41 35 3d
       -0.08787655 -0.046800017 0.0017447445 0.04425201
000260 5d 2c a5 3d f5 7e 4a bb 90 b0 88 3c 0e f6 eb bd
       0.08065102 -0.0030898426 0.016685754 -0.115215406
000270 d0 56 50 3d 22 c3 5c 3d 47 66 ed bd 06 41 52 3d
       0.05086404 0.05389703 -0.115917735 0.051331542
000280 85 bd 5d 3b 9a d4 08 3d 00 69 cd bd cc 65 a7 bd
       0.0033834886 0.033405878 -0.10029793 -0.08173713
000290 6f 28 83 bc b8 d1 51 bd 9a 6e 9e 3c 2e 03 4c bd
       -0.016010491 -0.051225394 0.019339848 -0.04980772
0002a0 87 59 bd bc 5a 2f 8b 3d 02 c0 93 3d ee 45 cd bc
       -0.023113979 0.06796141 0.07214357 -0.02505776
0002b0 3b f6 b0 3b 28 34 2b 3d db 12 ce 3d 34 47 86 bd
       0.0054004467 0.041797787 0.1006219 -0.0655655
0002c0 6f 91 c5 3d 2c a4 e4 3d d4 a4 c4 3d 3d 06 72 bd
       0.0964688 0.11164126 0.09601751 -0.05908798
0002d0 ac 8a d0 bd 07 0b 6b bc dc 06 79 3d 26 0d c3 3c
       -0.101826996 -0.014345891 0.060797557 0.02380998
0002e0 d2 5e b5 bd 3f ed 4e 3d 00 9f db bd ae d6 b1 bd
       -0.08855976 0.050519224 -0.10723686 -0.08683525
0002f0 80 ea c2 3c 9a e7 9a bd c0 15 d5 3d 4e af b1 3d
       0.023793459 -0.07563706 0.10404539 0.08676015
000300 84 31 b1 bd d1 0d 52 3c ff 50 80 3c 66 3c 04 3d
       -0.086520225 0.012820677 0.015663622 0.032284163
000310 60 3b 7e bd 38 d6 27 bd ba 13 cd 3d 02 56 b5 3d
       -0.062068343 -0.04097578 0.10013528 0.08854295
000320 95 44 e2 3d d2 ae fe 3b 0a 11 07 3d a6 b8 8f bd
       0.11048237 0.007772305 0.032975234 -0.07017641
000330 56 f8 21 3d 6c a2 30 bd 8e 6a 25 3d 13 35 b1 bd
       0.039543472 -0.043123648 0.04038482 -0.08652701
000340 77 05 d0 bd dd 1c 97 bd be 17 7e 3d 54 9b bc bd
       -0.10157292 -0.07378552 0.06203436 -0.09209314
000350 34 99 ee bd 62 bb e6 bd 34 4c af bd 26 3e 91 bc
       -0.11650315 -0.11266209 -0.085594565 -0.01772983
000360 ef 20 c9 3d 4b 79 8d 3d 8c e4 58 3d 68 28 96 3c
       0.09820735 0.069079004 0.052952334 0.018329814
000370 82 ce 2e bd d0 22 d6 3d 94 b1 ae 3d ee ee be bd
       -0.04267741 0.10455859 0.08529964 -0.09322916
000380 31 e8 93 3d 7b 10 8c 3d 90 98 c0 3c d4 66 71 ba
       0.07222021 0.06839081 0.023510247 -0.0009208743
000390 04 e5 72 bd 2c 6f 9c bc c2 b4 ac bd 7c 20 ee bd
       -0.059300438 -0.01909598 -0.08432914 -0.1162729
0003a0 03 73 ce bd b1 6e 87 bd 70 b6 a4 3d 14 6d 91 bd
       -0.100805305 -0.066129096 0.0804261 -0.07100883
0003b0 54 07 b4 bd 0a cc bb bd df 30 91 3d f8 91 06 3d
       -0.0879046 -0.09169777 0.070893995 0.03285405
0003c0 96 17 99 3d e6 c4 d0 bc 04 cd cc bc 6d 43 ee bb
       0.07475202 -0.025484513 -0.025000103 -0.0072712214
0003d0 f6 ea 1e 3d 6d bd 1a 3d 46 f8 76 bd 0e 0f f4 3d
       0.038798295 0.037778307 -0.060295366 0.11916934
0003e0 78 aa ae 3d 87 d5 d8 3d 96 79 e7 3d 52 c3 d5 3d
       0.08528608 0.10587602 0.113024876 0.10437645
0003f0 ae f6 f4 3d e3 67 a8 bd c2 27 ad 3b 78 cf 70 bd
       0.11961113 -0.0822294 0.0052842805 -0.058791608

classifier.0.bias f4 [32]
000000 25 7f eb bd 43 03 12 bd e5 d7 f6 3c 7d 10 9f 3d
       -0.1149886 -0.035647642 0.030132243 0.07766817
000010 08 28 a8 bd a8 93 56 bd 76 ea 34 be 9c 29 08 be
       -0.0821076 -0.05238691 -0.17667565 -0.13297123
000020 0c bd 36 3e 1e 0a 61 3e e9 b8 7c bd 70 b1 6e bd
       0.17845553 0.21976516 -0.06169978 -0.058274686
000030 90 47 14 3d 68 9f 16 3e 0a 9e 5c bd 38 a4 c5 3c
       0.03620106 0.14709246 -0.053861655 0.024126157
000040 a8 cf 81 bd d1 a4 86 3d 80 e6 f3 3d ac f9 03 be
       -0.063384354 0.06574405 0.11909199 -0.12888211
000050 a4 43 18 be bc 73 2b 3e d1 be 91 bd e6 4a 38 be
       -0.14869553 0.16743368 -0.071164735 -0.17997321
000060 88 8e 04 3e 0c cb f0 3d e5 a1 de 3d bc 66 80 3d
       0.12944996 0.11757478 0.10870723 0.06269595
000070 ea 79 7f 3d 9e a1 4e bd 8e 49 5f bd 7c ee 3a bd
       0.062372126 -0.0504471 -0.054513507 -0.045637593

classifier.3.weight f4 [64, 32, 3, 3]
000000 40 16 67 3c f0 99 37 bb 17 f3 07 bc 1d 3b 4f 3c
       0.014104426 -0.0028015338 -0.008297703 0.012648371
000010 0f 77 31 3c 14 b7 9f bc d8 53 b0 bc 3a 34 05 3c
       0.010831608 -0.019496478 -0.021524355 0.008130128
000020 72 23 9a 3c a8 cb 95 3c 95 34 2e bb 3a 3b ce 3b
       0.01881573 0.018285587 -0.0026581634 0.0062936815
000030 c0 cc 4c bb 44 1f 5b bc f2 b4 bd 3c ec 7e cd bc
       -0.003124997 -0.0133741535 0.02315757 -0.025084935
000040 ab 9e 84 3b 20 93 e6 39 6d 41 26 bc c0 7b c5 3c
       0.004047235 0.00043978635 -0.010147435 0.02410686
000050 b3 85 12 3b da b5 13 3c b4 0c 63 bc f0 c1 61 39
       0.0022357523 0.009015525 -0.013858009 0.0002152992
000060 67 b2 47 bc 15 42 58 bc fe c9 1d bb d6 0f 5a bc
       -0.0121885305 -0.013199349 -0.0024076696 -0.01330944
000070 80 e8 a1 bc 86 38 13 3c 9f cf b8 bc ab 01 a9 ba
       -0.019764185 0.008985644 -0.022559939 -0.0012894174
000080 59 40 9d 3a ac 61 fa bb d5 d4 14 3c 9d dd 5a 3c
       0.0011997327 -0.007641038 0.009083946 0.013358501
000090 b3 29 c1 bc 95 8e 80 bc 3d 72 85 3b 76 1f e9 3a
       -0.023579454 -0.015692988 0.004072456 0.0017785865
0000a0 39 4d 85 3c 65 5e a0 bc 44 71 4b bc f1 86 44 bb
       0.016272174 -0.01957626 -0.012417141 -0.0029987658
0000b0 cc 08 6b bc 3a 69 ae 3c f9 cd 99 3b b6 50 be 3b
       -0.014345359 0.02129041 0.0046937433 0.0058079613
0000c0 e2 3e d2 bc ce 3e 86 3c d0 9a a1 bc 1b b2 70 bc
       -0.02566475 0.01638737 -0.01972714 -0.014690901
0000d0 de a0 b6 3c a2 d3 c9 3c 40 89 b2 3b 12 d7 b1 bc
       0.022293504 0.024637047 0.0054484904 -0.021708999
0000e0 27 d9 1c bc 6a 56 8f bc d9 dd 6c bc 8b de c8 3c
       -0.0095732575 -0.01749726 -0.0144571895 0.02452018
0000f0 e4 41 7a 3b b8 98 19 3c 5e be ca 3b 69 ab e7 3a
       0.0038186247 0.00937479 0.0061872443 0.0017674986
000100 44 37 0d bc 2d 65 b0 3c 64 2b 45 3c 40 1b f6 ba
       -0.008619133 0.02153262 0.012034271 -0.0018776432
000110 35 b0 ac b9 e4 a5 cf bb a9 64 e3 ba d2 a6 4e bc
       -0.0003293768 -0.0063369144 -0.0017348725 -0.012613015
000120 3a f0 97 3c c0 1b 84 3b 11 d5 e4 3b 68 8b 40 bc
       0.018547166 0.0040316284 0.0069834073 -0.011751987
000130 dc 63 c7 bc ee 0a 2d bc b0 ac b7 bc a1 d5 00 bc
       -0.024339609 -0.010561688 -0.022421211 -0.007863433
000140 1b 9e ac bc c6 95 d5 bb 8e 92 a7 3b 47 14 d1 3c
       -0.021071484 -0.0065180985 0.005113906 0.025522364
000150 8c 42 de bc 39 ad 9e 3c 75 ee ef bb f6 0b 2c 3c
       -0.027131341 0.019369708 -0.0073221275 0.010500899
000160 54 66 2e bc 3a 4d e5 3c fc f3 61 3c 3a 86 d2 bc
       -0.010644514 0.027990926 0.013791081 -0.02569877
000170 86 e2 38 3c 69 83 f1 bb 7e 63 b3 bc 64 aa 9f 3b
       0.011284476 -0.0073704016 -0.021898028 0.004872607
000180 b0 64 af bb 49 b8 1b 3c 32 30 8a 3c 76 69 ff 3b
       -0.005352579 0.009504386 0.016868684 0.0077945543
000190 3e 68 86 bc 70 e2 42 bc 98 cf 42 bb 2e 4c 6e 3c
       -0.016407128 -0.011894807 -0.0029725786 0.01454453
0001a0 86 88 b1 bc 42 e2 a7 3c 30 b9 36 3c ac 95 dc 3c
       -0.021671545 0.02049363 0.011152551 0.026926838
0001b0 72 37 07 3c 45 81 b1 bb 26 c3 66 bc 70 8a e2 3c
       0.008252965 -0.0054170215 -0.014084613 0.027653903
0001c0 1f 1d 71 bb 25 3f 61 bb d5 f3 dc 3b 45 c5 42 bc
       -0.003679104 -0.0034369912 0.006742934 -0.011887853
0001d0 7d 7a 06 bc f4 d9 b6 3b c9 8e b2 3c aa fe 8e 3c
       -0.008207914 0.0055801813 0.0217966 0.017455418
0001e0 c9 60 ad 3b 4f 84 e0 3c f4 66 7e 3a 2d f5 57 bb
       0.0052910787 0.02740684 0.0009704672 -0.0032952533
0001f0 92 dc 87 bc 00 57 e5 b8 5c f1 12 3c 5c e2 07 3c
       -0.016584668 -0.00010935776 0.008968677 0.008293714
000200 c2 d2 3e 3c 6a fb 0f ba fc df cf 3c 79 13 37 3c
       0.011646928 -0.00054924807 0.025375359 0.011174076
000210 ba 6a 5c 3c eb 17 b5 3c 1b e8 7d ba 08 ae b2 3b
       0.01345318 0.022106132 -0.00096857705 0.005452875
000220 84 3d ea bb 3e 64 b1 3c a6 c3 57 3c 68 0d 2e bc
       -0.0071484465 0.021654245 0.013169205 -0.0106233135
000230 fc 22 83 bb 9c d4 89 3c c6 33 b5 bc ac e6 a5 bc
       -0.004001973 0.016825013 -0.022119414 -0.020251594
000240 9f a4 83 3c 7a 98 f3 3b 67 58 8f bc fc c2 b1 3c
       0.016069708 0.007433948 -0.017498208 0.021699421
000250 98 b2 47 3c 7f 34 82 3c 8c 52 c2 bc 52 7e 54 3c
       0.012188576 0.015894173 -0.023721002 0.01296957
000260 66 f2 26 3c f5 63 9d bc 02 47 00 ba 2a dd d3 3c
       0.010189628 -0.019212702 -0.00048933935 0.025862295
000270 8c 01 be 3b 1a ac 9e bc 64 37 8e bb c3 d7 7a 3b
       0.0057985242 -0.019369174 -0.004340099 0.0038275577
000280 52 d5 b4 3c b6 62 b9 bc 8a 9d 8f bc 00 40 79 bc
       0.022074375 -0.022630077 -0.017531175 -0.015213013
000290 71 aa 0d bc c8 27 ca 3a 3f 69 d1 3c b3 03 7a 3b
       -0.008646593 0.0015423233 0.02556288 0.0038149178
0002a0 4c e5 2a 3c 2e c8 07 3c 58 40 7f 3b 9b 90 bf 3a
       0.010430645 0.008287473 0.0038948264 0.0014615239
0002b0 7e 08 73 3c 78 df 60 3c e0 32 91 bc fb 05 53 3c
       0.014833568 0.013725154 -0.017724454 0.012879844
0002c0 e8 cc df 3c fa 31 77 3a 94 ac 9f bc 5a 1f ba 3c
       0.027319387 0.00094297493 -0.019491471 0.022720028
0002d0 61 8c 11 bc f2 7c e2 3b 02 13 63 3c f7 81 47 bc
       -0.008883567 0.0069118673 0.013859512 -0.012176982
0002e0 33 02 8d 3c b4 41 a7 3c 6a d5 ce 3b a4 f2 a2 3c
       0.017212963 0.020417072 0.006312062 0.01989109
0002f0 66 11 67 bc 10 e1 b7 3c 0a 7e aa bc 7c ca cd bc
       -0.014103269 0.022446185 -0.020812053 -0.025120966
000300 9a 2b b9 3b 30 2c a8 bc 0a 4d b0 3c 8f 56 92 bb
       0.0056509497 -0.020528883 0.02152111 -0.004465885
000310 9c 0e 9e bc 24 92 6f 3c 1c 23 03 bc 4a ff 23 bc
       -0.019294076 0.014622245 -0.008003976 -0.010009596
000320 c2 85 71 3a 50 cb b9 3c 70 60 11 bc e4 4e 3e 3c
       0.0009213352 0.022679955 -0.00887309 0.011615489
000330 cc 1a 8c 3c a6 e8 a7 bc 3e c4 5f bb a4 70 23 bc
       0.017102621 -0.020496678 -0.003414407 -0.009975586
000340 b4 a8 cb bb d6 16 83 3c d4 14 92 3c ae 12 cc 3c
       -0.0062151793 0.0160021 0.017832197 0.02491125
000350 ac d7 55 bc bb 1a 90 3b c8 48 21 ba 90 fa 79 bc
       -0.013051908 0.004397718 -0.0006152508 -0.015257493
000360 f3 cf a6 3c e5 fa e8 b9 22 95 56 3c d4 f8 5d 3c
       0.02036283 -0.0004443742 0.0130970795 0.013548095
000370 94 de 3a bc 24 7b 88 bc 4a 47 59 3c 70 b8 d9 3b
       -0.011405606 -0.01666028 0.013261626 0.006644301
000380 90 f1 3a 3c bf d5 8a 3c ab 5c 78 3c a2 2d e7 3b
       0.011410132 0.016947625 0.0151588125 0.0070550004
000390 21 f6 a3 3b 36 41 48 3c c2 92 1d bc 74 ed 0d 3c
       0.005003706 0.012222579 -0.009617509 0.00866257
0003a0 ca 97 a0 3c ee f6 83 bc f2 9a 88 3a bc 23 9c bc
       0.019603629 -0.016108956 0.0010422154 -0.019060008
0003b0 fc 56 c0 3b bb 0f 84 bc 33 89 32 3c 8a 84 ac bc
       0.0058697443 -0.016120782 0.010896969 -0.021059293
0003c0 be f5 c7 3b 07 f4 bb bc a0 1c 19 bc 88 01 b0 bb
       0.006102293 -0.02294351 -0.009345204 -0.0053712763
0003d0 b1 ae 84 bc 79 53 02 3c 34 89 a5 bb 0c 3f c5 3b
       -0.01619658 0.007954472 -0.0050517563 0.0060194787
0003e0 74 c8 29 3c e2 27 db 3c f5 be 8f 3b 48 f3 16 3c
       0.010362733 0.026752416 0.0043867775 0.009213276
0003f0 2b 51 2b 3c db 8d 83 bc 68 51 7d bc ce 17 a4 bb
       0.010456364 -0.016058853 -0.015461303 -0.0050077206

classifier.3.bias f4 [64]
000000 a2 8b 3a 3d 23 13 fc bc fa cb 83 3d e0 a1 10 bd
       0.04554332 -0.030770844 0.0643539 -0.035310626
000010 19 f4 50 bd ff 22 61 3d ab 1d b8 3c 9e b7 9e 3c
       -0.05101404 0.054965016 0.022475084 0.019374665
000020 f8 e3 55 3d 7c 9f 69 bc 3a 89 a2 3c 8e 02 58 3d
       0.05221936 -0.014259215 0.019840825 0.05273681
000030 88 f0 74 bc 62 29 6f bc 9e 98 14 3d 34 c1 40 bd
       -0.014949925 -0.014597269 0.03627836 -0.047059253
000040 1a a9 0b 3d be 67 50 3d 66 48 3f 3c e8 b9 e5 3b
       0.034096815 0.050880186 0.011674976 0.007010687
000050 77 9c 87 bb 62 06 9b bc a2 d5 04 3c 08 1f 70 bd
       -0.004138525 -0.018923942 0.008107575 -0.058623344
000060 48 a1 aa bc 10 b0 14 ba 57 53 08 bd 89 81 ed bc
       -0.020828858 -0.00056719873 -0.033282604 -0.028992431
000070 27 26 4d bd de bb 20 bd 16 c0 16 bb 78 bb 31 bd
       -0.050085213 -0.039241664 -0.0023002676 -0.043391675
000080 42 00 44 3d 8c 27 8d 3b b6 bb 37 3d 1c ce 12 3d
       0.04785181 0.004307693 0.04485675 0.035841092
000090 e3 d3 21 bc 7d 3f 0d 3d c4 41 bd 3b 42 9f 64 3c
       -0.009877178 0.034484375 0.005775662 0.013953986
0000a0 00 5d cc bc 99 e0 23 bc df 20 ac 3b 16 8a d1 bc
       -0.02494669 -0.010002279 0.005252942 -0.02557854
0000b0 3f 6c 8a bc 38 5a 21 3c e4 8f 14 bc 02 06 03 3c
       -0.016897319 0.00984817 -0.009067509 0.007997038
0000c0 62 14 f6 3c 0c 0c 9c 3c ea fc 8c bc 22 6d b3 3c
       0.030039016 0.019048713 -0.017210443 0.021902625
0000d0 2e 27 55 bc 18 fa 22 3d 18 bb 24 3d 6c 6a 94 bc
       -0.013009829 0.03978929 0.04021749 -0.018117152
0000e0 c8 19 10 bd d6 79 10 3d c2 4a 20 bd dc 76 2a bd
       -0.035180837 0.03527244 -0.039133795 -0.04161726
0000f0 10 50 83 bc 74 78 d1 bc 86 91 81 3c af 94 ff bc
       -0.016029388 -0.025570132 0.015816461 -0.031198828

classifier.6.weight f4 [128, 64, 3, 3]
000000 a4 42 12 3c 60 23 02 bc 74 ba 5f 3c 6f 5a 60 ba
       0.008927021 -0.007943004 0.013655294 -0.00085583975
000010 14 b0 33 ba 3b 8e ac 3b c9 46 07 3c 4c 8e de bb
       -0.0006854546 0.0052659786 0.008256623 -0.0067918655
000020 1e 7f 0d bc 65 7f 05 3c d8 bd 5c 3b 87 96 aa 3b
       -0.008636264 0.008148049 0.0033682492 0.0052059325
000030 91 54 f4 ba c7 d8 8f bb 90 b4 de bb 78 37 01 bc
       -0.0018640925 -0.0043898555 -0.006796427 -0.00788676
000040 dd 83 22 bc 3e 49 33 bc 12 5a ce 3b 0c 22 b0 bb
       -0.009919134 -0.010942755 0.0062973583 -0.0053751525
000050 96 fc c1 ba 6f 1c fb 3b ba d8 83 3b b2 2d cf bb
       -0.0014800008 0.0076633017 0.0040236386 -0.006322586
000060 b0 f9 71 bb 50 01 36 3c 8c 08 be 3a 51 9d a2 bb
       -0.0036922507 0.011108711 0.0014498397 -0.0049626012
000070 10 ad 63 bc e9 82 d8 3b 92 3d b0 3b f6 c1 be bb
       -0.013896242 0.0066074026 0.0053784335 -0.005821462
000080 2c 77 50 b9 6d ca 9e 39 08 c1 16 3c fe 90 1f bc
       -0.00019880821 0.00030286927 0.009201296 -0.009739159
000090 fa 66 21 3c 97 ae 4b bb 37 3f 02 3c dc 91 1c bc
       0.009851212 -0.0031079405 0.007949642 -0.00955626
0000a0 c0 7f 35 bc cc fa 30 3a 76 de 45 bc 1d 4d 8e bb
       -0.011077821 0.0006751239 -0.012076965 -0.0043426887
0000b0 e4 02 fa 3a 53 85 e8 ba d0 70 ae 38 3f cb 0b 3c
       0.0019074348 -0.0017739929 8.3179795e-05 0.008532344
0000c0 e8 f0 ac 3b af 33 58 bb 22 f3 1b bb 7e dd a9 bb
       0.0052777417 -0.003298979 -0.0023796041 -0.0051838746
0000d0 60 8e c7 3b aa 5d 1d 3b 06 5e 44 3c c0 bf b3 ba
       0.0060899705 0.0024012127 0.011985308 -0.0013713762
0000e0 c9 bf 56 bb 57 65 01 3b 9d 5c 93 3b 42 44 e9 3b
       -0.0032768121 0.001974424 0.0044971243 0.0071187327
0000f0 c1 f4 3b 3b 5b 16 12 3c 26 e0 8d bb 8c 77 4a 3b
       0.002867982 0.008916463 -0.004329699 0.003089401
000100 4a ef f2 3b 45 5a 9a bb d2 8e bd 39 3e bd e6 3b
       0.0074137794 -0.004710468 0.000361553 0.0070416024
000110 7a 59 e2 3b 6a 7b 16 bc 0a 10 92 bb f6 7a 83 3b
       0.006907639 -0.009184698 -0.0044574784 0.004012461
000120 08 7a 86 bb ac 37 1e 3c f8 6d f3 3b 74 9e 22 3c
       -0.0041039027 0.009656828 0.007428881 0.0099254735
000130 04 b2 61 bc 94 4e 31 bc 44 a4 f4 bb 80 fb 6c 3b
       -0.013775352 -0.010821957 -0.007465871 0.0036160648
000140 21 5b 0c 3b 28 1e af 3b a2 64 ce 3b d4 b4 a5 3b
       0.0021416622 0.005344171 0.0062986175 0.005056957
000150 01 94 e3 bb 80 6f d0 bb 8f 6e 82 3b 2a cf 08 ba
       -0.0069451337 -0.006360948 0.003980465 -0.0005218858
000160 59 32 0b 3c be 30 42 3b ea cc 50 3c 46 ea 1e 3b
       0.008495891 0.0029631103 0.012744168 0.0024248525
000170 f6 82 28 bb 1e 4f ce 3b c8 0e 08 bc fc a5 f1 3b
       -0.0025712824 0.0062960526 -0.008304305 0.007374523
000180 f9 2c 4a bc 42 79 0d 3c 57 8b d9 bb 84 9b 74 3b
       -0.012339824 0.008634867 -0.006638925 0.003732414
000190 c0 eb 1d 3b c8 24 1e 3c b4 e0 45 3c a4 8b 82 bb
       0.0024096817 0.009652324 0.012077499 -0.0039839316
0001a0 1a c1 2e bc ce f2 21 bb 5e ea 1d 3c 7e 07 dd 3b
       -0.010666156 -0.0024711373 0.009638397 0.006745278
0001b0 f1 ad 00 3c 6e 40 6a bb 62 a7 d3 3b c8 25 d2 bb
       0.007853971 -0.003574397 0.0064591626 -0.0064131953
0001c0 78 ff bf bb 51 f1 4d 3c ff 8f 86 bb 00 11 a0 3b
       -0.0058593117 0.012569741 -0.004106521 0.004884839
0001d0 a6 b8 52 bc 50 73 00 bb 05 cf d0 ba ca 78 d8 3a
       -0.012861406 -0.0019599982 -0.0015930837 0.001651549
0001e0 16 f2 ec 3b 61 6e 9d bb e1 83 e9 bb 14 ac be bb
       0.0072310073 -0.004804418 -0.007126317 -0.005818853
0001f0 ef c7 c9 bb 73 79 a3 3b 83 fe 68 bb 0a 93 1f bb
       -0.006157867 0.004988843 -0.0035552091 -0.0024349117
000200 f1 f4 c8 bb 56 40 1b bc c0 b0 84 bc e2 70 90 bb
       -0.006132715 -0.009475788 -0.016197562 -0.004407988
000210 a5 1c 83 3a c0 7e d7 3a 8c 05 32 3c 87 b9 51 3c
       0.0010003044 0.0016440973 0.01086558 0.012800581
000220 18 fa e7 b9 7c 65 55 3c 0f 92 c2 3b 28 a6 00 3c
       -0.00044246088 0.013024684 0.0059378217 0.007852115
000230 57 ee 7e bb 9c 08 4d 3c bc 74 3d 3c b7 70 ff bb
       -0.0038899386 0.01251426 0.011563476 -0.007795419
000240 8d 49 2f bc a0 3a b1 b9 40 5e 28 3c 80 17 e7 3a
       -0.010698688 -0.0003380375 0.010276377 0.0017630905
000250 12 2e 3e bc be ad 08 3c 2c d3 8e bb 7d 79 03 3c
       -0.011607664 0.008342205 -0.0043586697 0.0080245705
000260 60 5c 98 3a 2d 2c 2b 3c 87 df 0e bc b6 07 ef bb
       0.001162421 0.010447544 -0.008720285 -0.0072946204
000270 0f 88 4b bc db 7c 9e 3b 6a 1e e1 3b 78 15 82 bb
       -0.012422576 0.0048366613 0.0068700807 -0.0039698444
000280 67 a3 01 bc 9a 5c 20 3c 06 61 79 ba 04 e4 9b 3b
       -0.007912493 0.009787703 -0.0009513054 0.004757406
000290 de 44 dd 3b 24 87 22 b9 b8 0f b5 3b ee f6 1a bc
       0.0067525944 -0.00015499868 0.0055255555 -0.009458287
0002a0 55 97 dd 3b 2c aa ec 3b 92 71 db bb 24 ba d3 bb
       0.006762425 0.0072224345 -0.0066968882 -0.0064613987
0002b0 26 3d c3 3a 9a 2c 8d bb 19 cd 88 3b 07 b4 db 39
       0.0014895543 -0.0043082954 0.00417484 0.00041905066
0002c0 12 38 26 bc d6 67 94 3b 3a e6 16 bc 30 97 c5 bb
       -0.010145204 0.00452898 -0.009210164 -0.006029986
0002d0 3e ba 05 bc 7e 7d 61 3c 38 1b d0 3b bf 47 33 3c
       -0.008162079 0.01376283 0.006350901 0.010942399
0002e0 41 6d 23 bc 26 1c 90 3b f9 0d 61 3c 7b ef 06 3c
       -0.009974779 0.004397887 0.0137362415 0.0082358075
0002f0 aa 36 59 bb de a3 c1 3b 56 39 23 bc 0d 4a 61 3b
       -0.0033144155 0.005909427 -0.0099624 0.0034376413
000300 07 c7 5b bc c8 d0 0c bb ba 90 b6 bb 68 d6 6b bb
       -0.013414151 -0.0021486748 -0.005571452 -0.003598595
000310 00 f8 68 b6 e8 8d 20 bb 15 a2 ae bb d1 a4 22 bc
       -3.471505e-06 -0.0024498645 -0.0053293803 -0.009926991
000320 88 26 db bb 97 cf e6 bb 52 79 03 3c 2f 75 57 bb
       -0.006687943 -0.0070437896 0.0080245305 -0.0032876243
000330 c4 b6 77 bb 70 d0 2c 3c e4 5f bb 3b 34 e6 48 3c
       -0.0037798146 0.010547742 0.005718218 0.012261916
000340 14 92 c7 3a c7 fb bb bb 14 f3 41 3c 2b 07 c0 3b
       0.001522603 -0.0057368013 0.0118377395 0.0058602295
000350 97 89 14 bc 32 bd 1b bc c2 53 07 bc 0c 39 e2 3b
       -0.009066007 -0.009505557 -0.0082597155 0.006903773
000360 7c 8e 98 3b 64 e1 93 ba ee df 19 3c ea 7c 59 bc
       0.0046556573 -0.0011282382 0.009391768 -0.013274411
000370 0a cf c6 3b c7 14 13 bb 9a 1b 3b bb 66 3b 8d 3b
       0.0060671614 -0.0022442804 -0.0028550387 0.0043100594
000380 b8 67 22 bb 11 0e d7 3b 01 97 27 bc b9 c1 ee bb
       -0.002478106 0.006562956 -0.010228873 -0.007286277
000390 4a 74 82 3c 8a 2b 2f bc 4c 0c 8b bb b4 b4 30 3c
       0.015924592 -0.010691533 -0.0042434093 0.0107852705
0003a0 5c d8 f4 3b 99 6c 9b bb cd ec 10 bc 02 a0 e9 bb
       0.007472081 -0.0047431705 -0.00884552 -0.00712967
0003b0 66 19 f6 bb e3 76 75 ba 11 e5 e7 3a 6a ba 2e 3c
       -0.007510352 -0.0009363724 0.0017692168 0.010664562
0003c0 ac af 03 3c aa 3c d9 3a fd 7c de bb ca 2b 12 3c
       0.008037489 0.0016573865 -0.006789802 0.008921573
0003d0 73 57 15 3c 4b 77 13 3c e6 20 c6 3b 3d e9 87 bb
       0.009115088 0.00900061 0.0060464023 -0.004147677
0003e0 f4 8a 5c bb 49 fe 0a 3c 51 31 2a 3c bc bf 97 3b
       -0.0033652158 0.008483478 0.0103877345 0.004631011
0003f0 e5 69 6d bb 38 0d 0d 3b 57 17 b6 bb 84 9c 20 3c
       -0.0036226448 0.0021522772 -0.0055569815 0.009802941

classifier.6.bias f4 [128]
000000 3c 60 77 3c 80 40 13 3b 69 0c 08 3d 25 e8 f6 bc
       0.015098628 0.0022468865 0.03321496 -0.030139992
000010 14 34 33 3c 07 6a 0b 3d ee d1 20 3d fc a9 49 3d
       0.010937709 0.034036662 0.039262705 0.049234375
000020 99 de be 3b 14 15 23 bc 07 f1 ea 3c 3a ea 86 bc
       0.0058248756 -0.009953756 0.028679384 -0.01646911
000030 3e 8e 9f 3c 56 f1 08 3d c0 2d 29 3c 6a d0 fe bc
       0.019477006 0.03343328 0.010325849 -0.031105239
000040 45 4b a4 bc 1d bb 90 bc b8 36 bc 3c 39 b4 d2 3a
       -0.020055423 -0.017667348 0.02297531 0.0016075439
000050 00 37 34 3d 1e 81 ed 3c 7a eb 33 3d c8 5c 20 bc
       0.043997765 0.028992232 0.04392574 -0.009787746
000060 d2 8e d0 3c d6 91 89 bc 14 d0 bd 39 b6 c5 42 bc
       0.025458727 -0.016793173 0.0003620392 -0.011887958
000070 32 be a9 bc 66 c1 e4 bc e4 ed 2e 3d 0d 48 90 bb
       -0.020720575 -0.02792425 0.04270734 -0.0044031204
000080 24 f7 8c bc c4 0e 14 bd c2 20 5a 3b 1f f4 59 3c
       -0.01720769 -0.036146894 0.0033283685 0.013302832
000090 7a 3c ba bc e7 a5 24 bd d2 51 38 3c 5c ce 7c 3c
       -0.022733916 -0.04019728 0.011249976 0.015430059
0000a0 f4 fa 2d 3c 34 f2 c3 3c fe 4b ad 3c 17 10 27 3d
       0.010618914 0.023919202 0.0211544 0.04078683
0000b0 af 7f bd 3c 6d 3e 3e 3d c0 e6 9f 3a 2a c1 a2 3c
       0.023132173 0.046446253 0.0012199506 0.019867498
0000c0 05 cd 12 3c 02 19 4f bc 7c 23 21 bd 60 ea ad 3b
       0.008960013 -0.01264024 -0.03934048 0.0053074807
0000d0 4a 90 9f bc bf a9 1f 3d fc b2 ef bb 2a b0 4a 3c
       -0.019477982 0.038980242 -0.007315038 0.012371102
0000e0 e1 b6 2b 3d 06 0c 16 3d 2c 91 b0 bb 0b 6c 2c 3d
       0.041922454 0.03663256 -0.0053883996 0.042095225
0000f0 6c fd 11 3b 8e 0c 63 bc d7 e7 eb bb 9a 4e dc bb
       0.0022276295 -0.013857974 -0.0071992683 -0.006723237
000100 d0 c9 24 bd da 8c 9e 3c 9e 30 e8 3c 31 85 1f 3d
       -0.040231526 0.019354273 0.028343495 0.03894538
000110 32 09 eb 3c 12 20 8b 3c 27 fa 48 3d ef c2 15 3d
       0.028690908 0.016983066 0.04906669 0.036562856
000120 87 c9 57 bc b7 59 c5 bb 32 71 e7 bc b6 cd 91 3c
       -0.013170606 -0.0060226577 -0.028252218 0.017798286
000130 20 bc 84 3c 8a 98 36 3d 9c ca f6 3c 2b 61 e9 3c
       0.016202986 0.044579066 0.030125909 0.028488716
000140 20 90 d1 bc 64 ea ba 3a 8e 7f a0 3c 60 19 00 3d
       -0.02558142 0.0014260528 0.019592073 0.0312742
000150 4c 45 60 3a 56 48 01 3d 3c d0 07 3d 10 d8 df bb
       0.0008555248 0.031563126 0.033157572 -0.0068311766
000160 ea 64 d8 3c 43 6d 91 bc 8c 0c 0b 3d da 3d 15 3c
       0.026415307 -0.017752295 0.033947513 0.009108985
000170 5c ca 11 bc d1 07 2c bc bc b2 f6 3b 5e 12 2e 3d
       -0.008898344 -0.01049991 0.007528631 0.042497985
000180 24 6e a5 3c f3 7d 81 3c c0 1f 4c 38 00 48 f3 bc
       0.02019412 0.015807128 4.866696e-05 -0.029697418
000190 d0 e0 f8 bc c2 56 1d 3d 8a 14 41 3d 83 97 b6 bb
       -0.030380636 0.038412817 0.04713873 -0.005572261
0001a0 87 0b 31 3d 4d f3 a3 bc d0 7d 8b 3c 22 3c 99 bc
       0.043223884 -0.020013476 0.017027766 -0.018705431
0001b0 7a ea e3 bc 00 fa 95 3c fd 45 41 bd b0 a2 43 3b
       -0.027821768 0.018307686 -0.047185887 0.0029851608
0001c0 3e 8e f8 3c 68 5d cb 3c 97 19 1b 3d f0 0d 3e 3d
       0.030341264 0.024824813 0.0378662 0.04640001
0001d0 5b e5 b8 ba ff c9 cb bb 86 25 98 bc de 71 6d bc
       -0.0014106439 -0.006219148 -0.01857258 -0.01449248
0001e0 5b c3 ab 3c 58 1f 10 bd b6 95 04 bc e3 e0 11 3c
       0.020967176 -0.03518614 -0.0080923345 0.008903715
0001f0 bc 6b 62 bb 03 9e 28 3d 50 82 d9 3c 08 db 1b bd
       -0.0034549078 0.041166317 0.026551396 -0.03805068

classifier.9.weight f4 [10, 128, 4, 4]
000000 15 21 e2 3b 0a 39 38 3c 80 3b 17 3a 3c 9f a3 3b
       0.0069009163 0.011244068 0.0005769059 0.0049933475
000010 95 f3 98 3b f2 f3 e2 3b 26 74 bf bc df cf 87 3c
       0.004667709 0.006926053 -0.023370814 0.016578613
000020 5d 05 d9 3b eb 53 9e bb c2 72 80 bc 0e b5 e0 ba
       0.006622954 -0.004831781 -0.01567972 -0.0017143802
000030 64 59 4d bc 37 9a a1 bb b6 b5 00 ba cd 06 6f 3c
       -0.012533519 -0.004931714 -0.00049098895 0.014589024
000040 6a 93 f2 bb 66 35 68 3c b3 6d 50 bb 29 82 20 3c
       -0.007402827 0.014172887 -0.0031803667 0.009796658
000050 7c 1e 82 bc ae 8f 84 bc de 57 18 3c 3c 28 7b 3c
       -0.015883677 -0.016181793 0.009298293 0.015329417
000060 f8 17 92 3b 68 00 87 3c 36 5e fc bb 0f dd ab 3c
       0.0044584237 0.016479686 -0.0077016605 0.020979432
000070 c8 01 0a 3c 7e 64 6e 3c f5 6b 52 3a e6 e4 57 3c
       0.008423276 0.014550326 0.0008026951 0.013177132
000080 64 4d 96 3b 90 2a df 3b c0 2c e4 bb 40 9a 7f bc
       0.0045868624 0.006810494 -0.0069633424 -0.015600741
000090 38 47 b0 3c 72 97 03 bc 26 76 7e 3a a9 ae 71 bb
       0.021518335 -0.008031713 0.00097069365 -0.0036877787
0000a0 90 5a 40 3c 10 96 8c 3b 6e e2 1f bc 6b bc ba bc
       0.011740342 0.00429035 -0.009758575 -0.022794923
0000b0 36 1a 4a 3b 83 ad 5b bc 48 2b d3 bb db 2e 8c 3c
       0.0030838377 -0.013408068 -0.0064443685 0.017112186
0000c0 7e 3e 54 bc c9 df 6e 3b 8a e0 4d 3c ca 8c 13 bb
       -0.012954352 0.0036449304 0.012565741 -0.0022514337
0000d0 6e 3d 2e bb 76 8b 10 3c 80 21 34 bc c7 d3 28 3b
       -0.0026586908 0.008822313 -0.010994315 0.0025760995
0000e0 4c 0f 4c 3c c4 4a 98 bc 56 b9 7b 3c 9c 61 84 bb
       0.012454819 -0.018590339 0.015364012 -0.0040399563
0000f0 56 3a 09 bc 20 96 c6 ba 8d 30 3a 3b e0 fa 4e bc
       -0.008375725 -0.0015150942 0.0028410286 -0.012633055
000100 16 d6 45 bc 60 c8 94 bb 4f 60 f9 bc a8 b0 88 3c
       -0.012074968 -0.004540488 -0.030441431 0.016685799
000110 e7 02 6b bc ca 14 b8 bc 76 72 7b bc fe cc b3 bb
       -0.014343954 -0.02247085 -0.015347114 -0.0054870835
000120 16 ab 35 3c 72 3c 2d 3c 49 61 9c bc 8c a9 b2 bc
       0.011088153 0.010573493 -0.019089358 -0.021809362
000130 40 5c fd ba 1e cd 96 3b 2c a5 8d bc cc 40 f7 bc
       -0.0019329861 0.0046020886 -0.017290674 -0.030182265
000140 d4 67 97 bc a2 bb 56 3c 2c 4b f0 bb 4f f0 ed 3c
       -0.018482126 0.013106259 -0.00733318 0.029045252
000150 c0 e9 62 bc f1 46 2d 3c 77 6d bd ba 8a 4e e3 3a
       -0.013849676 0.010575996 -0.0014452179 0.0017342132
000160 3a 53 03 3c 16 ab 32 bc b3 2d c6 3c 1b 68 db 3c
       0.008015448 -0.010905048 0.024191713 0.02678304
000170 df 3d b8 3c 64 b4 68 3c 18 34 08 3c e5 f0 b8 3c
       0.02249044 0.014203165 0.008313201 0.022575805
000180 4f cc ae bc 56 84 82 bc 4e 97 f1 bc 92 e3 d1 bc
       -0.021337656 -0.015932243 -0.029491093 -0.02562121
000190 b2 cc 44 3a 89 3b c8 3b 8e d5 e5 bc cc 1a a2 bc
       0.00075073086 0.006110613 -0.028055932 -0.019788168
0001a0 6b 06 ed bb 4c ee 36 3c bb a5 e9 bb fd a7 89 bc
       -0.007233431 0.011165213 -0.0071303523 -0.016803736
0001b0 e9 8b 2a 3c fa 59 c5 3c a8 10 11 3c 9a f2 c2 ba
       0.010409334 0.024090756 0.008854069 -0.0014873326
0001c0 3b fa 04 bd 7b 21 e4 3b 75 4d 98 bc c8 c0 95 bc
       -0.0324652 0.006961999 -0.018591622 -0.018280402
0001d0 5c bb d0 bc d6 61 12 3c d8 ae 9a bc 9b 70 20 bc
       -0.025479965 0.008934459 -0.0188822 -0.009792472
0001e0 ee 87 c6 bc e7 3b 92 bb 29 fc f4 bb 90 33 c3 bc
       -0.024234738 -0.0044627073 -0.007476349 -0.023828298
0001f0 89 22 84 bc 07 97 73 bb e8 e6 74 bc f2 6b f1 3b
       -0.016129749 -0.0037168877 -0.01494763 0.0073676044
000200 7f f7 f7 3c 9a 3d f2 ba 0e 24 b4 3b 01 b2 b4 3b
       0.030269383 -0.0018481493 0.005497462 0.005514384
000210 f3 3e cc 3c 85 d8 ba 3b 96 62 85 3c c6 4c 17 bc
       0.02493236 0.0057020807 0.016282361 -0.009234613
000220 63 d1 96 3c 51 f1 99 bb 26 8d 0b 3a e8 ef b0 b9
       0.01841039 -0.0046979566 0.0005323462 -0.0003374808
000230 2c d3 ca 3c bc 77 01 3c 92 f8 84 3c 0a 93 ee 3c
       0.024758898 0.007902082 0.016231809 0.029122848
000240 4a 98 6c bc be 0a 65 bc 54 bd a8 bc b7 40 3b bc
       -0.014440605 -0.013979612 -0.020598091 -0.011429003
000250 0b c4 cb bc a2 dc 0c bc a0 ea 92 b8 74 8a 62 3c
       -0.024873754 -0.008597525 -7.005525e-05 0.013826955
000260 3e 88 47 3c 23 11 e3 bb da 78 81 bc bb 96 92 3b
       0.012178479 -0.006929533 -0.015804697 0.004473535
000270 84 ef c9 bc ee 4a 0d 3c ba 5d 3b 3c 13 67 19 bc
       -0.024650343 0.008623822 0.01143592 -0.009362954
000280 44 2d 83 3c 57 f1 4b bb d4 32 a0 bb 8d 07 46 bc
       0.016012795 -0.0031119192 -0.0048888717 -0.012086761
000290 e4 76 a4 bc 13 2d 09 bc 3b f3 90 bb 95 02 f1 bc
       -0.020076223 -0.008372563 -0.0044235266 -0.029420177
0002a0 cf 7c 04 3c e0 b9 63 bc c3 fc 2f bc 76 fe 15 bb
       0.008086397 -0.0138992965 -0.010741415 -0.0022887266
0002b0 b0 d7 97 bc ff 41 c9 bc 24 63 68 3b 97 4a 35 3c
       -0.018535465 -0.024567602 0.0035459483 0.011065147
0002c0 69 cf 13 3c f6 d2 29 bc 4c 98 dc bc fb 20 00 bc
       0.009021618 -0.010365238 -0.02692809 -0.007820363
0002d0 94 a6 be bb 77 09 95 3b a8 e6 35 bc 9e 6b 37 bc
       -0.0058181975 0.0045482474 -0.011102356 -0.0111950915
0002e0 ca 80 7b bc a6 3f 16 3c 22 2d 19 3c b8 d2 76 3a
       -0.01535053 0.009170448 0.009349139 0.0009415555
0002f0 ee 22 78 bc 5b af de 3b 35 de 27 bc 3d 07 aa 3b
       -0.015145047 0.0067958063 -0.010245849 0.005188851
000300 51 1b 72 bb 73 39 4c bc cd b8 78 bb 08 ed 8e bc
       -0.0036942551 -0.012464869 -0.0037951947 -0.01744701
000310 00 97 31 bc e1 00 85 3c 21 43 00 3c 00 22 3d 38
       -0.010839224 0.01623577 0.007828505 4.5092776e-05
000320 27 d4 32 3c a3 1f 84 3c e6 2a e0 bb d4 d6 94 bb
       0.010914839 0.016128367 -0.0068410514 -0.004542211
000330 51 40 83 3c 56 99 06 3c 10 6c 89 3c db 99 b1 bb
       0.01602188 0.008215269 0.016775161 -0.0054199523
000340 18 5a db 3a 24 6f 21 3a 72 b2 16 bc 2e 2c 59 3c
       0.0016735224 0.0006158224 -0.009197818 0.013255162
000350 35 67 2e bc d6 dc 80 bc ee c3 ca bb c1 ba 44 bc
       -0.010644724 -0.015730303 -0.0061879074 -0.012007416
000360 8e ab cc 3b 2a a5 8d bc 64 f1 c5 39 b7 56 80 bc
       0.006246037 -0.01729067 0.00037754618 -0.015666349
000370 27 17 8d 3c 36 c0 87 bc b8 88 89 39 35 c9 80 bc
       0.017222954 -0.016571146 0.0002623254 -0.015720943
000380 58 bf 96 bc f4 bc 03 3c 6e bf 6c 3c 5f aa f5 ba
       -0.018401787 0.008040655 0.014449937 -0.0018742791
000390 56 8c 58 3c 32 fd a9 3b ce 53 f5 3c 24 e9 cd 3b
       0.013217052 0.005187654 0.029947188 0.006283896
0003a0 bc e4 72 bc 9b 12 84 3c 40 23 00 b9 82 88 e7 bb
       -0.014825042 0.016122153 -0.00012220163 -0.0070658335
0003b0 14 51 60 3c f1 25 86 bc 21 1a 9c 3c a7 a9 48 bc
       0.0136912055 -0.016375514 0.019055428 -0.0122474795
0003c0 86 4b 18 3c 4c f3 e0 3b 04 25 ca 3c e5 ea 8e 3b
       0.00929535 0.0068649407 0.024675854 0.0043614977
0003d0 b5 38 88 3b fa 2f a0 bb 6a 7e 83 bc 6e c4 15 bb
       0.0041571506 -0.0048885318 -0.01605149 -0.0022852677
0003e0 06 40 9b 3b 6a 99 4d bc 8f dc 8c 3c 0c cf 3c 3b
       0.004737857 -0.012548784 0.017195014 0.0028809933
0003f0 44 8e 9f bc 94 43 45 3c dc 1d 74 3c 9b 14 83 3c
       -0.019477017 0.012040038 0.014899697 0.016001036

classifier.9.bias f4 [10]
000000 72 d4 01 bd f5 47 28 bd be bf 9d 3c 88 cc 2e 3c
       -0.031696744 -0.04108425 0.019256469 0.010668881
000010 2e 35 81 3d ed 08 59 3b bd 2f cf 3c e6 31 5e 3c
       0.06308971 0.0033116892 0.025291318 0.013561701
000020 97 65 81 3c a0 e5 54 bd
       0.015795512 -0.0519768
